notebooks/runs/cartpole/0/99/model.pt (torch_old, 73419 bytes, 13 tensors)

state_encoder.fc1.weight f4 [64, 4]
0	0x3dfdfad2	0.12401356
1	0x3e5ff795	0.21871789
2	0xbf28dd3f	-0.65962595
3	0xbec19f9f	-0.37817094
4	0xbe21e2f2	-0.15809229
5	0x3e39b886	0.18136796
6	0x3f4419e8	0.7660203
7	0x3ed962d1	0.42458203
8	0x3e94797c	0.28998935
9	0x3e1678a8	0.14694464
10	0xbf1e0ea0	-0.61741066
11	0xbe34b1ec	-0.17645997
12	0xbe92c75d	-0.28667727
13	0xbed01eac	-0.406484
14	0xbd5a86d5	-0.053351242
15	0x3dab9779	0.083785005
16	0x3d90290b	0.07039078
17	0x3ea45f1b	0.3210381
18	0xbf57bca7	-0.84272236
19	0xbea51f07	-0.32250234
20	0x3c0671ef	0.008205875
21	0x3f075988	0.5287099
22	0x3eb1b81f	0.34710786
23	0x3ebcb6cb	0.3685821
24	0xbe8aaadf	-0.2708349
25	0xbc8298b6	-0.015941959
26	0xbe5c9958	-0.21542871
27	0xbef9c38b	-0.48782
28	0xbea76980	-0.32697678
29	0xbe5168db	-0.20450155
30	0x3e34665e	0.17617175
31	0x3eed43bc	0.4634074
32	0x3daa787e	0.08323763
33	0xbebb90bf	-0.3663387
34	0xbfa1b528	-1.263341
35	0xbecc1b15	-0.39864412
36	0xbf55036c	-0.83208346
37	0x3f09ea68	0.538733
38	0x3f832f5e	1.024883
39	0x3ea3aefd	0.31969443
40	0x3e9fe7bb	0.31231484
41	0xbeb5e274	-0.35524333
42	0xbef50d50	-0.4786172
43	0xbeecb488	-0.46231484
44	0xbef5587a	-0.47919065
45	0xbe642954	-0.2228139
46	0x3f813693	1.009478
47	0x3ea269d2	0.3172136
48	0xbe821feb	-0.25414976
49	0x3cce0b69	0.025151925
50	0x3f858b3b	1.0433115
51	0x3f05abf2	0.5221549
52	0xbce1ad9b	-0.027548602
53	0x3d52fbd2	0.051509686
54	0xbe5d2a6f	-0.21598218
55	0xbe9e17c4	-0.30877507
56	0x3eb0e463	0.34549245
57	0xbf0f9fc9	-0.5610319
58	0xbf73e14e	-0.9526566
59	0xbe7fdcbd	-0.24986549
60	0x3d96a335	0.07355348
61	0x3ef65940	0.48114967
62	0x3e7bd8ce	0.24594423
63	0x3eae4f11	0.34044698
64	0x3e8c896e	0.274486
65	0xbd813f20	-0.06310868
66	0x3c9c6440	0.019090772
67	0x3ded4400	0.115852356
68	0x3e92fbee	0.28707832
69	0x3ef0f3a0	0.4706087
70	0xbf81ec38	-1.0150213
71	0xbe573c32	-0.21019056
72	0xbe01812d	-0.12646933
73	0x3efe2548	0.49637818
74	0x3f8e51da	1.1118729
75	0x3ef5c493	0.48001537
76	0xbc8cacd0	-0.017172247
77	0xbf198d6e	-0.5998143
78	0xbe8f7ad9	-0.28023413
79	0xbe3a754c	-0.18208808
80	0xbf19ac00	-0.60028076
81	0x3f145a13	0.5794994
82	0x3f0d7017	0.5524916
83	0xbeeb6a2d	-0.45979443
84	0x3e1ab526	0.15108165
85	0xbd95f88a	-0.07322796
86	0xbdefcf73	-0.1170949
87	0xbe74ecd2	-0.23918465
88	0x3c24416c	0.010025363
89	0xbe7a48bb	-0.24441807
90	0x3f60d90b	0.8783118
91	0x3e9dc8cb	0.30817255
92	0x3eb8a918	0.36066508
93	0x3d9a0e6c	0.07522282
94	0xbf9eb80f	-1.239992
95	0xbe9c59ee	-0.3053736
96	0x3f071073	0.52759475
97	0x3c87314b	0.016502997
98	0xbf97843d	-1.1837231
99	0xbe99ae0f	-0.3001561
100	0x3ea98886	0.33111972
101	0x3eaabd7b	0.33347687
102	0xbec3946c	-0.38199174
103	0xbe2d11ba	-0.16901293
104	0xbe8b3520	-0.2718897
105	0xbcdc6fb9	-0.026908742
106	0xbf32ad55	-0.69795734
107	0xbed6ab2f	-0.41927478
108	0x3e32c971	0.17459656
109	0xbcbae3b0	-0.022813648
110	0x3cf715ac	0.030161701
111	0x3e9caa76	0.305988
112	0xbef9aa8e	-0.48762935
113	0x3f0f8505	0.56062347
114	0x3eb2056d	0.34769765
115	0xbed1064c	-0.40825117
116	0xbe8d6d9c	-0.27622688
117	0x3dc224bd	0.094796635
118	0x3f5da46b	0.86579007
119	0x3e13fe12	0.14452389
120	0x3dc613cc	0.09671745
121	0xbb44a041	-0.0030002745
122	0xbc786d32	-0.015162753
123	0x3e811c45	0.2521688
124	0xbe8083ef	-0.25100657
125	0xbecf774b	-0.405207
126	0xbf52a9c0	-0.8229027
127	0xbe695494	-0.2278617
128	0xbe51c34d	-0.20484658
129	0xbec2ad3d	-0.38022795
130	0x3ea20bbe	0.31649584
131	0x3de7f811	0.11326612
132	0xbf213563	-0.62972087
133	0x3ddb31d9	0.10702867
134	0x3f86a4b0	1.0519009
135	0xbd703afe	-0.05865001
136	0xbe4cafdf	-0.19988964
137	0xbd325159	-0.04353461
138	0x3ece389e	0.4027757
139	0x3eadbed2	0.33934647
140	0x3e4806a6	0.19533786
141	0x3ee289ed	0.44245854
142	0x3f4d3ce2	0.80171025
143	0xba6d3662	-0.0009048936
144	0xbf3bb684	-0.7332537
145	0xbe106afd	-0.14103313
146	0x3f9b1d04	1.211823
147	0xbcd19b44	-0.025586732
148	0x3defef12	0.11715521
149	0xbee3d8d7	-0.44501373
150	0xbfb02c87	-1.3763589
151	0xbee4e3e1	-0.44705108
152	0xbe584145	-0.21118648
153	0x3ec447d3	0.38336048
154	0x3e8f6121	0.2800379
155	0xbefee403	-0.49783334
156	0x3ebd8e1e	0.3702249
157	0xbf24f28f	-0.64432615
158	0xbee72355	-0.45144144
159	0xbc9d8c17	-0.01923184
160	0x3ec7c8fe	0.39020532
161	0xbead92cc	-0.3390106
162	0xbfaecb61	-1.3655816
163	0xbeadd354	-0.33950293
164	0x3db06630	0.08613241
165	0xbe372229	-0.17884125
166	0xbf060515	-0.52351505
167	0x3e8be060	0.27319622
168	0xbf3a5fa9	-0.72802216
169	0x3e092ab7	0.133952
170	0x3f829b14	1.0203576
171	0xbe3634c9	-0.17793573
172	0x3e20211f	0.15637635
173	0xbd38794e	-0.04503756
174	0xbf2268b1	-0.63440996
175	0x3eba5071	0.36389497
176	0x3f00dc54	0.50336194
177	0xbeb5d391	-0.35512975
178	0xbde25566	-0.11051445
179	0xbed1c7a1	-0.40972617
180	0xbe2af58a	-0.16695228
181	0xbcbdf4ed	-0.023188079
182	0x3f94cea4	1.1625562
183	0x3e31ca2a	0.17362276
184	0x3e5d8778	0.21633708
185	0x3e5dfcd2	0.21678475
186	0xbede0041	-0.4335957
187	0xbe4366ac	-0.19082135
188	0xbf583237	-0.8445162
189	0x3ed622c2	0.41823393
190	0x3fabcf53	1.3422645
191	0x3e93ac4f	0.288424
192	0x3d09c0c7	0.033631112
193	0xbd49a080	-0.04922533
194	0xbf80c9aa	-1.0061543
195	0xbe7b0526	-0.24513683
196	0xbe963ea2	-0.2934466
197	0x3e1ead6a	0.1549584
198	0xbe8ab717	-0.2709281
199	0x3ba8b929	0.005149026
200	0xbcd6da88	-0.02622725
201	0x3eaea872	0.3411289
202	0xbf66a042	-0.90088284
203	0xbed17b4f	-0.4091439
204	0xbf61f251	-0.8826037
205	0x3ef28573	0.4736744
206	0x3f225a27	0.6341881
207	0x3ecda25d	0.40162936
208	0x3ee0a49f	0.43875596
209	0xbccc64f2	-0.024950478
210	0xbf1cdb09	-0.6127172
211	0xbd4e0e98	-0.050306886
212	0xbe0003a8	-0.12501395
213	0xbd8d8475	-0.0691003
214	0x3ef88de1	0.48545745
215	0x3d9e4114	0.077272564
216	0xbf39b84d	-0.72546846
217	0xbf017dc8	-0.5058255
218	0x3e5f6105	0.21814354
219	0xbeb400ab	-0.3515676
220	0xbeba6656	-0.364062
221	0x3f3d03a4	0.7383368
222	0x3f041afe	0.51603687
223	0x3d12dad6	0.03585323
224	0xbea55998	-0.32294917
225	0x3e2d8b5c	0.16947693
226	0xbf9519f5	-1.1648546
227	0xbdef2a1b	-0.11677953
228	0xbe1b2643	-0.15151314
229	0xbde23b81	-0.11046506
230	0x3f089d27	0.53364795
231	0x3ee47d4c	0.44626844
232	0xbded5d3d	-0.115900494
233	0x3edee238	0.43531966
234	0xbdfaad33	-0.122400664
235	0xbe9915af	-0.29899356
236	0x3ee4ae42	0.44664198
237	0xbeeab444	-0.45840657
238	0x3c89d9a8	0.01682742
239	0x3e5b00da	0.21387044
240	0x3d249a52	0.040186234
241	0x3ef0090a	0.46881896
242	0xbe2f21f8	-0.17102802
243	0x3ba50531	0.0050360193
244	0x3f30bb11	0.6903544
245	0xbf12a2b0	-0.5727949
246	0xbe6af7bd	-0.22946067
247	0xbef30a37	-0.4746873
248	0x3e5d2cfa	0.21599188
249	0xbe56d7e1	-0.20980789
250	0xbf620677	-0.88291115
251	0x3da1e015	0.079040684
252	0x3f7d8103	0.9902498
253	0xbe84d760	-0.25945568
254	0xbfa37b2e	-1.2771966
255	0xbe37d5ad	-0.17952605

state_encoder.fc1.bias f4 [64]
0	0xbf01aa56	-0.50650537
1	0x3e7ced54	0.24699908
2	0xbe07bf28	-0.13256514
3	0xbe5c8db0	-0.21538424
4	0xbdb66625	-0.08906201
5	0x3f2ada99	0.66739804
6	0x3ec0dda5	0.376691
7	0x3ee16681	0.44023517
8	0x3eb1caf1	0.34725145
9	0x3e002c39	0.1251687
10	0xbde38387	-0.11109071
11	0x3e6ad2e8	0.22932017
12	0x3f038067	0.513678
13	0x3e0f44d6	0.13991103
14	0x3e79ca60	0.24393606
15	0xbd0231c7	-0.031785753
16	0xbef20a42	-0.4727345
17	0x3e5e6370	0.2171762
18	0xbdf99d5e	-0.121882185
19	0xbe9c6528	-0.30545926
20	0x3f171db2	0.59029686
21	0xbeaf5908	-0.34247613
22	0x3da27b97	0.07933729
23	0x3ea59c76	0.32345933
24	0x3e049855	0.12948735
25	0xbea2682f	-0.3172011
26	0xbeb65e5f	-0.35618874
27	0x3f08f6f8	0.53501844
28	0x3e6e7c0b	0.23289506
29	0x3f09a539	0.53767735
30	0xbe7a3107	-0.24432765
31	0x3eaa290a	0.33234435
32	0xbe068c68	-0.13139498
33	0x3ec50652	0.38481385
34	0xbe8ea56c	-0.27860582
35	0x3ebf644b	0.37381205
36	0x3e0952eb	0.13410537
37	0x3e06ef78	0.13177288
38	0xba2ae0ed	-0.0006518502
39	0xbd851936	-0.06498949
40	0x3ef87021	0.48523048
41	0xbe87bf0e	-0.2651295
42	0x3f015c24	0.5053122
43	0xbdeac644	-0.114635974
44	0xbe3629d1	-0.17789389
45	0x3dfd1e86	0.123593375
46	0xbe2669f3	-0.16251354
47	0x3de8a340	0.113592625
48	0x3e18acee	0.14909717
49	0xbec4aa7a	-0.38411313
50	0x3de6c521	0.11268068
51	0x3eb56a43	0.35432634
52	0x3eb1059c	0.34574592
53	0xbd5a4a6f	-0.05329364
54	0xbb0dfcdc	-0.0021665609
55	0x3d9608fd	0.07325933
56	0x3e969dd0	0.29417276
57	0xbdd48f89	-0.1037894
58	0x3ea21b94	0.31661665
59	0x3ee2afa4	0.44274628
60	0xbdd2aa49	-0.102863856
61	0x3cc7f5ad	0.02440914
62	0x3ee7c2e0	0.45265865
63	0x3dc31bee	0.095268115

state_encoder.fc2.weight f4 [32, 64]
0	0xbd38bcb8	-0.04510185
1	0x3e179548	0.1480304
2	0xbe21090c	-0.15726107
3	0x3c9c08cb	0.019047162
4	0x3d581157	0.05275091
5	0x3e9915bd	0.29899397
6	0x3dae1906	0.085008666
7	0x3dddf219	0.10837192
8	0xbd0fe777	-0.03513285
9	0x3d654f88	0.05598405
10	0xbdd6a675	-0.10480968
11	0x3d0ad091	0.03389031
12	0x3e810961	0.25202468
13	0x3d85f7d7	0.06541412
14	0xbe23bcf4	-0.15990049
15	0x3ed50a76	0.41609544
16	0x3dc152aa	0.09439595
17	0x3ddb5745	0.10710005
18	0x3e8cbdf6	0.2748868
19	0x3db3c01f	0.087768786
20	0x3be741ec	0.007057419
21	0x3cd508a5	0.026005099
22	0x3e57d1e2	0.21076158
23	0x3c9220db	0.017837932
24	0xbde76558	-0.11298627
25	0x3d8b7066	0.06808548
26	0x3cbf62b1	0.02336249
27	0x3e385445	0.18000896
28	0xbd4f2cc6	-0.05057981
29	0x3e57d168	0.21075976
30	0xbb1bfb36	-0.0023800856
31	0xba9fdebd	-0.0012197118
32	0x3cc465f5	0.023974398
33	0x3e973f65	0.29540554
34	0xbb5b4668	-0.0033458713
35	0x3df88af1	0.12135876
36	0x3dad9dce	0.084773645
37	0xbd82ea12	-0.063923016
38	0xbd2b1a41	-0.041773085
39	0x3c7e6b97	0.015528581
40	0xbe451f8d	-0.19250317
41	0xbe073fa5	-0.13207872
42	0xbce2269a	-0.027606297
43	0x3deadbb3	0.114676856
44	0x3d15c461	0.036564235
45	0x3e94a59a	0.29032594
46	0x3d9c385e	0.07627939
47	0x3df2652a	0.11835702
48	0xbe20a59a	-0.15688172
49	0xbca6dc79	-0.020368801
50	0xbdc92e0b	-0.09823235
51	0x3e829945	0.2550756
52	0xbe035553	-0.12825517
53	0xbbbf7c5a	-0.0058436813
54	0x3b48fa0c	0.0030666618
55	0x3c793883	0.015211227
56	0x3d530363	0.0515169
57	0x3e1c6e06	0.15276346
58	0x3dc95939	0.09831471
59	0x3e26e611	0.16298701
60	0x3df10218	0.117679775
61	0xbd2b6016	-0.04183968
62	0x3db60f9b	0.08889695
63	0xbd67d305	-0.05659773
64	0x3c98fd6c	0.018675528
65	0x3e78871e	0.24270293
66	0x3d1929b9	0.037393305
67	0x3dd5d9ef	0.10441958
68	0xbda8bfd2	-0.08239712
69	0x3e58dc05	0.21177681
70	0x3cf3273a	0.02968179
71	0x3d03bc5b	0.03216205
72	0xbe1869b9	-0.1488408
73	0x3e879b4f	0.2648568
74	0xbd8d1125	-0.06888036
75	0x3e47ae71	0.19500138
76	0x3e4c65aa	0.19960657
77	0xbc2e7822	-0.010648759
78	0xbe7838e1	-0.24240448
79	0x3ec54f9c	0.385373
80	0x3da3b58c	0.07993612
81	0xbb242e25	-0.0025051918
82	0x3e91cdef	0.28477427
83	0x3c52b708	0.012861021
84	0x3da197a9	0.07890255
85	0x3e07d075	0.13263114
86	0x3e685a65	0.22690733
87	0x3d53718b	0.051621955
88	0xbd6cb898	-0.05779323
89	0x3d82bb8c	0.06383428
90	0xbd85343a	-0.06504102
91	0x3d7ea6e9	0.062170897
92	0x3dfe4806	0.12416081
93	0x3e2072ea	0.15668836
94	0x3cd71c56	0.026258629
95	0xbe3490c6	-0.17633352
96	0x3d1be14e	0.038056664
97	0x3ea068af	0.31329867
98	0x3dbf410d	0.09338579
99	0x3e374db9	0.17900743
100	0x3e396b33	0.181073
101	0xbe32dc67	-0.1746689
102	0x3cdb9ef2	0.02680919
103	0x3c16fe10	0.009215847
104	0xbd6cbb1b	-0.057795625
105	0xbe017012	-0.12640408
106	0x3d8f4189	0.06994922
107	0xbd7a2151	-0.06106693
108	0x3d1b06bd	0.037848223
109	0x3e671a66	0.22568664
110	0xbdd38815	-0.1032869
111	0x3ed55a8e	0.4167065
112	0x3d221ee9	0.03958026
113	0x3bebe256	0.007198612
114	0xbdd8538c	-0.1056281
115	0x3ddd054d	0.10792027
116	0xbcd33ddd	-0.025786335
117	0x3d214e68	0.039381415
118	0x3e36c8d6	0.1785005
119	0xbd422908	-0.04740241
120	0xbe39693e	-0.18106553
121	0xbd0c6e13	-0.034284662
122	0xbc47f1ce	-0.012203647
123	0x3e0ff91a	0.14059868
124	0xbde9d3d3	-0.114173554
125	0x3e4411f5	0.19147475
126	0xbd77c8bb	-0.060494166
127	0xbd494574	-0.0491385
128	0x3c4b4b17	0.0124080395
129	0xbd888589	-0.06666095
130	0x3e4260f0	0.18982291
131	0x3d84ba30	0.06480825
132	0x3e5e1433	0.21687393
133	0x3e032b5c	0.12809509
134	0xba88d00b	-0.0010437978
135	0x3e182840	0.14859104
136	0x3e63085a	0.22171155
137	0x3d3d72b7	0.04625198
138	0x38d14b55	9.979928e-05
139	0xbd8368a5	-0.06416444
140	0xbdb5c1d4	-0.088748604
141	0x3ce3f669	0.027827458
142	0x3e2e636c	0.17030114
143	0x3d99fd73	0.07519045
144	0x3d233510	0.039845526
145	0x3e2df161	0.1698661
146	0xbc788c57	-0.015170178
147	0xbdc7f188	-0.09762865
148	0xbd58a0f7	-0.052887883
149	0xbd1d3f0e	-0.03839021
150	0xbb4c6db1	-0.003119331
151	0x3e95855c	0.29203308
152	0x3e535a29	0.20639862
153	0xbc055c07	-0.008139617
154	0x3d9f9e69	0.07793886
155	0xbc941868	-0.018078044
156	0xbdb6e017	-0.089294605
157	0x3d7a09ab	0.061044376
158	0xbd0176e2	-0.031607516
159	0x3e97466d	0.29545918
160	0xbe0dfa9e	-0.13865134
161	0xbe711e27	-0.23546658
162	0xbd9eadb7	-0.07747977
163	0x3dbcb0d5	0.092134155
164	0xbdd6ff14	-0.10497871
165	0x3eb02a08	0.34407067
166	0x3de1ea5c	0.11031029
167	0x3e0c3e2f	0.13695596
168	0x3e6ee05e	0.23327777
169	0x3cfd6369	0.030931192
170	0xbd93b54d	-0.07212315
171	0x3df4200f	0.11920177
172	0x3dc0ef8b	0.09420689
173	0xbe12096b	-0.14261405
174	0x3e223a4e	0.15842554
175	0xbe1b90e3	-0.15191989
176	0x3d960e81	0.07326985
177	0xbd81c622	-0.06336619
178	0x3e55f26d	0.2089326
179	0x3e17a1f0	0.14807868
180	0x3d75d3b7	0.06001636
181	0x3c738336	0.014862826
182	0x3ca62e83	0.02028585
183	0x3da01a69	0.07817537
184	0x3e949a1f	0.29023835
185	0xbdb91af9	-0.09038348
186	0x3dc219d1	0.0947758
187	0x3e15adc3	0.14617066
188	0x3d37e8f9	0.044899914
189	0x3db77b8c	0.089591116
190	0x3e1c1433	0.1524208
191	0x3ecddc4e	0.40207142
192	0xbce31882	-0.027721647
193	0x3bd1fdb3	0.006408417
194	0x3d799483	0.060932647
195	0x3dfd0c42	0.123558536
196	0xbcc257b9	-0.02372347
197	0x3cb79645	0.022410521
198	0x3dbf541b	0.09342214
199	0x3d869b95	0.06572644
200	0x3e1cffb0	0.15331912
201	0xbe5f54fc	-0.21809763
202	0x3dc46165	0.09588889
203	0x3c0a7f0c	0.008453142
204	0x3a2f36cd	0.0006683886
205	0xbd569df1	-0.05239672
206	0x3ec990ec	0.3936838
207	0xbe635a84	-0.22202498
208	0xb9b2f000	-0.0003412962
209	0xbd92d609	-0.0716973
210	0x3dd8d6d2	0.10587849
211	0x3e9625f9	0.29325846
212	0xbdbfcc59	-0.09365148
213	0xbe0a9cd9	-0.13536395
214	0x3d250f0d	0.040297557
215	0x3d62fe6f	0.055418428
216	0xb96bc8ad	-0.00022486104
217	0xbd3dafeb	-0.046310347
218	0x3cae45c2	0.021273497
219	0x3dc7992c	0.09746012
220	0xbd94521e	-0.07242225
221	0x3daced50	0.08443701
222	0x3dcc97f4	0.0998992
223	0x3dacdff6	0.08441155
224	0x3de8b559	0.11362714
225	0x3df760b1	0.12078989
226	0x3b56db7e	0.0032784636
227	0xbcbfbd51	-0.023405703
228	0x3d2cc2ac	0.04217784
229	0x3e8388ba	0.25690252
230	0xbd5871a9	-0.05284277
231	0x3d27cccc	0.040966794
232	0x3e5d0b75	0.21586402
233	0x3d17a363	0.037021052
234	0xbd2b85b1	-0.041875545
235	0x3d6b53b8	0.057452887
236	0x3d3dcaa5	0.046335835
237	0x3d4a1ffb	0.049346905
238	0x3e0b90e4	0.1362949
239	0x3ac4061c	0.0014955434
240	0xbda4f5d1	-0.08054698
241	0xbd9721d8	-0.07379502
242	0xbcb30e0f	-0.02185729
243	0x3d3ec069	0.046570215
244	0xbc0ee29c	-0.00872102
245	0x3e2953f4	0.16535932
246	0x3e2388b2	0.15970114
247	0xbd3da7ba	-0.046302535
248	0x3dcfc91d	0.10145781
249	0x3e02d376	0.12775978
250	0x3db0853c	0.086191624
251	0x3e2668a8	0.1625086
252	0x3d72a3e2	0.059238322
253	0x3e02a5e2	0.12758592
254	0x3e0157b9	0.1263112
255	0x3e93a6b6	0.28838128

state_encoder.fc2.bias f4 [32]
0	0x3e56e0c1	0.20984174
1	0x3d83c559	0.064341255
2	0x3b861c76	0.0040927483
3	0x3d11ed52	0.035626717
4	0x3e30ace9	0.1725346
5	0x3dea4a97	0.11440008
6	0x3d352125	0.044221062
7	0x3ddd8bf0	0.108177066
8	0x3dda5f25	0.10662679
9	0x3e1b3635	0.15157397
10	0x3e281042	0.16412452
11	0x3e14b4d7	0.1452211
12	0x3e39b050	0.18133664
13	0x3e7986cd	0.24367829
14	0x3e1acae3	0.15116458
15	0xbb4df44e	-0.0031426135
16	0x3cb16d98	0.021658704
17	0x3e0941af	0.13403963
18	0x3dd62068	0.104554
19	0xbe01a00f	-0.12658714
20	0x3c944a74	0.018101908
21	0x3e284795	0.16433556
22	0x3dec831d	0.115484454
23	0x3d35d371	0.0443911
24	0xbe1cf8c2	-0.15329269
25	0x3e28683d	0.16446014
26	0x3e18ec6b	0.14933936
27	0xbdfb8748	-0.12281662
28	0x3ec5e2ca	0.3864959
29	0x3e07d00d	0.13262959
30	0xbd100311	-0.035159174
31	0x3acd18ff	0.0015647708

state_encoder.fc3.weight f4 [50, 32]
0	0x3e22ec1e	0.15910384
1	0xbb824f92	-0.0039767707
2	0xbdd5f7a7	-0.104476266
3	0x3df3f66b	0.11912235
4	0xbce4368e	-0.027858045
5	0x3c1d5a0b	0.009603987
6	0xbd8823fc	-0.066474885
7	0xbe0d3951	-0.13791396
8	0xbe0014af	-0.1250789
9	0xbc979829	-0.018505173
10	0xbdf5556d	-0.11979184
11	0x3e30ca10	0.1726458
12	0x3ca91e6c	0.02064439
13	0xbd7dbb77	-0.06194636
14	0x3d664924	0.056222096
15	0xbe0ff4ea	-0.14058271
16	0xbd301bc4	-0.04299523
17	0x3d87332a	0.06601556
18	0xbe17692a	-0.1478621
19	0x3db03efe	0.08605765
20	0x3cc9ae2a	0.02461918
21	0xbe11f432	-0.1425331
22	0xbe170cd3	-0.14750986
23	0x3d4e0584	0.05029823
24	0x3d450569	0.048100863
25	0xbc9f561f	-0.019450245
26	0xbe21e68c	-0.15810603
27	0xbdd0a8e1	-0.10188461
28	0x3d7a1c60	0.061062217
29	0x3d03f42c	0.032215282
30	0x3cb3ba04	0.021939285
31	0x3d8fc4d1	0.070199616
32	0x3dca6946	0.098833606
33	0x3e6db958	0.23215234
34	0x3d48f2fd	0.049059857
35	0x3db9caab	0.09071859
36	0x3e903eb2	0.28172833
37	0xbe3dc0fe	-0.18530652
38	0xbd368337	-0.04455873
39	0xbe3b119a	-0.18268433
40	0x3e590937	0.21194921
41	0xbde3aeaf	-0.111173026
42	0x3ddde7c0	0.108352184
43	0xbe2a6bda	-0.16642705
44	0xbe8b222f	-0.27174518
45	0x3ea04ae2	0.3130713
46	0x3df7634a	0.12079485
47	0x3dad7ffa	0.08471675
48	0xbd8fb33f	-0.0701661
49	0xbe7ffce7	-0.24998818
50	0xbd28d74d	-0.04122095
51	0x3d956760	0.07295108
52	0xbe4e95cf	-0.20174335
53	0xbdbc2e12	-0.09188475
54	0xbdc81655	-0.097698845
55	0xbe29e397	-0.16590725
56	0x3d2f1ba1	0.04275096
57	0x3d4752a5	0.0486628
58	0x3ea44959	0.3208721
59	0x3d1d8d1c	0.03846465
60	0xbdff4b75	-0.12465564
61	0x3d9584b5	0.073007025
62	0x3e837875	0.2567784
63	0xbe7d6058	-0.24743783
64	0x3e0d6159	0.13806666
65	0xbb226e50	-0.002478499
66	0x3d5a34fe	0.053273194
67	0x3e2b203f	0.1671152
68	0xbe09c200	-0.13452911
69	0x3e8d0cad	0.27548733
70	0x3e760c07	0.24028026
71	0xbda0cc9b	-0.078515254
72	0xbe8895fd	-0.26676932
73	0x3e9858ce	0.29755253
74	0x3dc35448	0.0953756
75	0xbe3a933b	-0.18220226
76	0x3e7267fa	0.23672476
77	0xbe2f71f1	-0.17133309
78	0xbeab45a8	-0.3345158
79	0x3da1edea	0.07906707
80	0xbc8be89b	-0.017078688
81	0x3dc8af84	0.09799102
82	0xbd9bf224	-0.07614544
83	0xbc315325	-0.010823046
84	0xbe032126	-0.12805614
85	0xbe9e13f9	-0.30874613
86	0x3e5fabcf	0.21842884
87	0xbcfe846f	-0.031069009
88	0xbe00e5d2	-0.1258767
89	0x3d84751d	0.0646765
90	0xbe67b221	-0.22626545
91	0x3d403368	0.046924025
92	0x3eb173b8	0.346586
93	0x3e6a30b9	0.22870149
94	0xbe94508b	-0.289677
95	0x3e5e93e0	0.21736097
96	0x3e0feb08	0.14054501
97	0x3e554520	0.2082715
98	0xbe3db717	-0.18526874
99	0x3e247d85	0.16063507
100	0x3e187925	0.14889963
101	0x3d69b653	0.057058644
102	0xbd057df4	-0.03259082
103	0x3db1790f	0.08665668
104	0x3bbaa585	0.005696001
105	0xbdf70bbf	-0.12062787
106	0x3d96b246	0.07358222
107	0x3dcb320c	0.09921655
108	0xbe00259e	-0.1251435
109	0x3e188114	0.1489299
110	0x3cf40144	0.02978576
111	0x3dc59da6	0.0964921
112	0x3e5b7b7e	0.21433827
113	0x3bd34eb0	0.0064485893
114	0xbe3e7a04	-0.18601233
115	0xbd632c31	-0.055462066
116	0x3c4dfc22	0.01257232
117	0xbe489534	-0.19588166
118	0xbc8541b5	-0.016266683
119	0xbe17e270	-0.14832473
120	0x3d7cb069	0.061691675
121	0x3df7e5a5	0.12104348
122	0xbdb88c73	-0.090111636
123	0xbde86f1d	-0.11349318
124	0x3dbeb58b	0.0931197
125	0xbe0ae438	-0.13563621
126	0x3e33a219	0.17542304
127	0xbdfc0622	-0.12305857
128	0x3db929d0	0.09041178
129	0x3e0deda8	0.1386019
130	0x3d711aa1	0.058863286
131	0xbddd7662	-0.10813595
132	0x3dd04803	0.10169985
133	0x3dc5e8b3	0.096635245
134	0x3e57b5d9	0.21065463
135	0xbe2b72a7	-0.16742955
136	0x3c44c29c	0.012009289
137	0xbdbb90d1	-0.09158481
138	0x3db2a1fe	0.08722304
139	0xbe19c23d	-0.15015502
140	0xbe393139	-0.18085183
141	0xbd1ce242	-0.038301714
142	0xbd486279	-0.048922036
143	0xbc2eee8c	-0.010676991
144	0xbdadb7a2	-0.08482291
145	0xbe50f3d7	-0.20405518
146	0xbc03e7fd	-0.008050916
147	0x3dce9ccc	0.100885004
148	0xbe08a285	-0.13343246
149	0x3ba00ff8	0.004884716
150	0xbd95402f	-0.07287633
151	0x3d8d19a2	0.06889655
152	0xbd5a47bc	-0.053291067
153	0x3d8aaf67	0.067717366
154	0x3e8a696e	0.2703356
155	0x3e013ba9	0.12620415
156	0xbe0e3f53	-0.13891344
157	0x3d927398	0.07150954
158	0x3d942fdf	0.07235693
159	0xbd79cb56	-0.060984932
160	0xbe2f769c	-0.1713509
161	0xbe1b8ef2	-0.15191248
162	0x3e194916	0.14969286
163	0xbe3c9e90	-0.18419862
164	0xbd9318e1	-0.0718248
165	0x3d0bb227	0.034105446
166	0xbe594929	-0.21219315
167	0xbb06635e	-0.0020506005
168	0x3d744ecf	0.05964547
169	0xbe815806	-0.2526247
170	0x3ccc7f3e	0.024963018
171	0x3da75d35	0.08172075
172	0x3d7e0827	0.062019493
173	0x3db13bac	0.0865396
174	0x3d5f7f07	0.054564502
175	0xbc76798d	-0.015043628
176	0xbe89a5cb	-0.26884302
177	0x3d45404b	0.048157018
178	0x3e1f653d	0.15565963
179	0xbd8a78dd	-0.06761334
180	0xbe233162	-0.15936807
181	0x3e7da2a1	0.24769069
182	0xbd891068	-0.06692582
183	0x3da748d1	0.081681855
184	0xbdca0007	-0.098632865
185	0x3d0b145a	0.033954956
186	0x3e177374	0.14790136
187	0x3de2f09a	0.11081047
188	0xbe6b3b4a	-0.22971836
189	0x3d61bc4d	0.05511122
190	0x3da6ded7	0.08147972
191	0xbdc2923d	-0.09500549
192	0xbc979ec9	-0.018508332
193	0x3db37d2d	0.0876411
194	0xbe865f0e	-0.26244396
195	0x3e14a71d	0.14516874
196	0x3ea00abc	0.3125819
197	0xb88dd89b	-6.76375e-05
198	0x3de094a0	0.10965848
199	0xbd51cc61	-0.0512203
200	0x3ea4a6f3	0.32158622
201	0xbe951cdd	-0.29123583
202	0x3da45999	0.08024902
203	0xbe4543f0	-0.19264197
204	0xbe06309a	-0.13104478
205	0x3e1fef9a	0.15618744
206	0x3e654ddc	0.22392982
207	0x3b9376a5	0.0045002275
208	0x3d832960	0.06404376
209	0xbe84d48d	-0.25943413
210	0xbe4d953d	-0.20076461
211	0x3c9fd1dc	0.019509248
212	0xbe7b70cc	-0.24554747
213	0x3d1dbf4b	0.03851251
214	0xbe9185be	-0.2842235
215	0xbe3d0586	-0.18459138
216	0x3e0c1198	0.13678586
217	0xbd730643	-0.059332144
218	0x3e970a69	0.2950013
219	0x3e1451bf	0.14484309
220	0xbe01b2ae	-0.12665817
221	0x3e108182	0.14111903
222	0x3e70cfdc	0.23516792
223	0x3c4cd04f	0.0125008365
224	0xbdf2cbae	-0.11855255
225	0xbe861f1a	-0.26195604
226	0x3e607c8f	0.21922515
227	0xbe56b023	-0.20965628
228	0xbde4a6ca	-0.11164625
229	0x3d600d55	0.054700214
230	0xbe0cd11c	-0.13751644
231	0x3cd8bca9	0.026457148
232	0xbe74dbbd	-0.23911949
233	0xbdd78138	-0.105226934
234	0xbdf49405	-0.11942295
235	0x3e5f61dc	0.21814674
236	0x3d1b6cf4	0.037945703
237	0x3cf4a9cf	0.029866127
238	0xbdcc6d16	-0.09981744
239	0xbe3befb7	-0.18353163
240	0xbdbdeb93	-0.09273448
241	0x3da38af9	0.07985491
242	0x3d85283c	0.06501815
243	0xbce1b9d6	-0.027554434
244	0x3e07a58f	0.1324675
245	0x3e59882c	0.21243352
246	0x3e046d8a	0.12932411
247	0x3e07e011	0.13269068
248	0x3cbdb223	0.023156231
249	0xbd589ee9	-0.052885924
250	0xbc7dc7d4	-0.015489537
251	0x3dbde85a	0.09272833
252	0x3dcb7d54	0.09936014
253	0xbe7a2b66	-0.24430618
254	0xbd0139ec	-0.03154938
255	0x3dcdd9fb	0.10051342

state_encoder.fc3.bias f4 [50]
0	0x3d854a0b	0.06508263
1	0xbdf15666	-0.11784057
2	0x3e40a0ea	0.18811384
3	0xbe600264	-0.21875912
4	0x3e76c2c7	0.24097739
5	0x3e189791	0.14901568
6	0xbe327437	-0.17427145
7	0xbe547675	-0.20748313
8	0x3e3dd9fb	0.18540184
9	0x3e7cc8f3	0.24686031
10	0x3d75fea4	0.060057297
11	0xbdfbfa7f	-0.12303638
12	0x3e3db5ad	0.18526335
13	0x3de6b017	0.11264055
14	0x3cfe1015	0.031013528
15	0x3e14ba5b	0.14524214
16	0x3e373582	0.17891505
17	0x3dca25ff	0.098705284
18	0x3e02d328	0.12775862
19	0xbe7f1c2c	-0.2491309
20	0xbd353e4a	-0.044248857
21	0x3d1a5585	0.037679214
22	0xbc5467e5	-0.0129642235
23	0x3b78b37d	0.003794878
24	0x3c60697d	0.013697025
25	0x3dee8291	0.11645997
26	0xbe40f2d9	-0.18842639
27	0x3db84c38	0.089989126
28	0xbe02f3c3	-0.127883
29	0xbdea5c3c	-0.114433736
30	0xba084508	-0.0005198275
31	0xbdc057c9	-0.09391744
32	0xbd9936ad	-0.07481132
33	0xbe402d3a	-0.18767253
34	0x3ddf7351	0.10910667
35	0xbe12fa80	-0.1435337
36	0x3da2a56c	0.07941708
37	0x3e4559a6	0.1927248
38	0xbcb231d1	-0.02175227
39	0xbe435e39	-0.19078912
40	0xbe577090	-0.21039033
41	0x3cce43d9	0.025178837
42	0xbdfc6d13	-0.12325492
43	0x3d5c077e	0.053718083
44	0x3df09eeb	0.11749061
45	0xbceb2420	-0.02870375
46	0x3e0f6279	0.14002408
47	0xbd7f15af	-0.06227654
48	0xbce64859	-0.02811067
49	0xbdbb3f0e	-0.09142886

action_encoder.linear1.weight f4 [100, 52]
0	0x3d827860	0.06370616
1	0xbde481ab	-0.11157545
2	0x3ceaca4b	0.028660914
3	0xbd7ae8ad	-0.061257053
4	0x3df11ebd	0.11773441
5	0xbcc6ca00	-0.024266243
6	0xbe008496	-0.12550578
7	0xbd355737	-0.044272628
8	0xbd5a95a1	-0.053365353
9	0x3df771c4	0.12082246
10	0xbd751ab9	-0.059839938
11	0x3d0fbc03	0.03509141
12	0x3e197593	0.14986257
13	0x3d7f434e	0.062320046
14	0xbd19104d	-0.03736906
15	0x3dd88e7a	0.1057405
16	0xbc76af67	-0.015056468
17	0xbe1e9bd5	-0.15489133
18	0xbb31f7c2	-0.0027155732
19	0xbddca9fb	-0.10774609
20	0xbe1fc3c0	-0.15602016
21	0x3d9386b3	0.07203426
22	0x3dc2a410	0.09503949
23	0xbd953c7b	-0.07286926
24	0xbc3e8e0d	-0.011630547
25	0xbd418b33	-0.04725189
26	0xbbb84b8d	-0.0056242407
27	0x3d4c979a	0.049949266
28	0xbdbbfb1e	-0.09178756
29	0x3d41b6ec	0.04729359
30	0xbe025b0e	-0.12730047
31	0xbd4649a3	-0.04841007
32	0xbd9a16e9	-0.07523901
33	0x3dff989e	0.12480281
34	0x3dc364f5	0.095407404
35	0x3dbed235	0.093174376
36	0x3e15f1dc	0.14643043
37	0x3d193823	0.03740705
38	0xbe27f561	-0.16402198
39	0xbdd0f506	-0.102029845
40	0xbd543fbf	-0.051818606
41	0xbda79c91	-0.081841595
42	0x3d649f4f	0.05581599
43	0x3d522196	0.05130156
44	0x3b3e0ed9	0.002900055
45	0xbdd2647e	-0.102730736
46	0x3e0ce7db	0.13760321
47	0xbc985f3a	-0.018600095
48	0xbd4ec400	-0.05047989
49	0x3c19f096	0.009395739
50	0x3dc0e6e0	0.09419036
51	0xbe73986b	-0.23788612
52	0x3df1832f	0.117925994
53	0xbdb18cac	-0.08669409
54	0x3db62d03	0.08895304
55	0x3df6bda0	0.12047887
56	0x3d8204e9	0.06348593
57	0x3d9f3e00	0.077754974
58	0xbdf95952	-0.121752396
59	0xbd7a13a7	-0.0610539
60	0xbe0210ac	-0.12701672
61	0xbda45ce7	-0.08025532
62	0xbda538a1	-0.08067442
63	0x3deee8b5	0.11665479
64	0x3d8fe396	0.070258304
65	0x3dc153a1	0.09439779
66	0xbd2adb1b	-0.04171286
67	0x3d71ab30	0.059001148
68	0xbd66d471	-0.056354944
69	0xbd55734d	-0.052111913
70	0x3d6beaf3	0.057597112
71	0x3d97f7c0	0.074203014
72	0xbe39823f	-0.18116091
73	0x3dc73b01	0.09728051
74	0xbd1deb0b	-0.038554233
75	0x3db8eb7c	0.0902929
76	0xbe1223b4	-0.14271432
77	0x3c6f6ffe	0.014614103
78	0xbd2e32c4	-0.042528883
79	0xbda06a84	-0.07832816
80	0xbd4b0aa5	-0.0495707
81	0x3d0934c6	0.033497594
82	0xbc160259	-0.009155833
83	0xbd3c44cb	-0.045964044
84	0x3db6fbc4	0.08934739
85	0x3de50d9b	0.11184236
86	0xbd2a4666	-0.041571043
87	0x3d42654b	0.04745988
88	0x3cbde8ca	0.023182292
89	0x3ab6b99a	0.0013940812
90	0x3d38a54b	0.04507951
91	0xbc7a454c	-0.015275311
92	0x3d90404f	0.07043516
93	0xbdfc3220	-0.12314248
94	0xbc54f6dd	-0.01299831
95	0x3df98ab7	0.12184661
96	0xbd31baf6	-0.04339119
97	0x3d11a70a	0.03555969
98	0x3dc2a55c	0.09504196
99	0xbe1146cd	-0.14187165
100	0xbd597906	-0.053093933
101	0x3e03e1be	0.12879083
102	0xbdc381e5	-0.0954626
103	0xbce46980	-0.027882338
104	0x3ced7868	0.028988078
105	0x3cdec5e0	0.027193964
106	0xbcc5326e	-0.024071898
107	0xbb471d9c	-0.0030382639
108	0x3db82cc4	0.08992913
109	0x3b28272c	0.0025658114
110	0xbe234a34	-0.15946275
111	0x3c7f87ce	0.015596343
112	0xbb81e173	-0.003963643
113	0x3c936c21	0.017995896
114	0x3d8db836	0.06919901
115	0xbbe6522c	-0.0070288386
116	0xbd8ef9e6	-0.06981258
117	0xbd106bbb	-0.03525899
118	0xbc981da3	-0.01856882
119	0xbcb01b94	-0.021497525
120	0xbc187d9e	-0.009307293
121	0xbdd5a30a	-0.10431488
122	0x3dc35a3a	0.09538694
123	0x3d87f7f8	0.06639093
124	0x3d1147c6	0.03546884
125	0x3d308a88	0.043100864
126	0x3cab9ceb	0.020948848
127	0x3dd42e01	0.10360337
128	0x3b53919c	0.0032282835
129	0x3d71e8c0	0.05905986
130	0xbdb3c072	-0.087769404
131	0xbc154718	-0.009111188
132	0xbe235671	-0.15950944
133	0x3c297f12	0.010345237
134	0xbe00ae4f	-0.12566493
135	0xbd96a2b2	-0.073552504
136	0x3deb4b5a	0.114889815
137	0xbdc96ea6	-0.09835558
138	0x3dd6cf56	0.10488765
139	0xbdc65dcd	-0.0968586
140	0x3de89c58	0.11357945
141	0x3d901c59	0.07036657
142	0xbda8d6ef	-0.0824412
143	0x3d749419	0.05971155
144	0xbe22c3a9	-0.15894951
145	0xbd875734	-0.066084296
146	0xbdf66ec6	-0.12032847
147	0x3ce0f911	0.027462514
148	0xbc4f752a	-0.012662211
149	0xbdba8344	-0.09107068
150	0x3e1c67cb	0.15273969
151	0x3c8ab93e	0.016934033
152	0xbdaff449	-0.085915156
153	0xbc509029	-0.012729683
154	0xbedb92dd	-0.42885485
155	0x3e82548a	0.25455123
156	0x3db8e1b2	0.09027423
157	0xbcf18da8	-0.029486492
158	0x3d16b78b	0.036796134
159	0x3dba2439	0.0908894
160	0xbd9e86a9	-0.07740528
161	0xbd485ed4	-0.04891856
162	0xbbcc2772	-0.006230288
163	0xbdc89c60	-0.09795451
164	0xba56f248	-0.0008199555
165	0xbc349622	-0.011022123
166	0xbd529137	-0.05140802
167	0x3d31b13e	0.043381922
168	0x3e012722	0.12612584
169	0x3d4d865a	0.050176956
170	0xbdb0d9bd	-0.0863528
171	0x3dc21e93	0.09478488
172	0xbdc3d159	-0.09561414
173	0xbde2ef20	-0.11080766
174	0x3d9986ed	0.07496438
175	0x3daf8310	0.0856992
176	0x3dca68ed	0.09883294
177	0x3dea3f61	0.1143787
178	0xbd9c94c5	-0.07645563
179	0x3bf929ac	0.0076038446
180	0xbd714fe7	-0.05891409
181	0xbbcd289f	-0.006260946
182	0x3ddf8665	0.109143056
183	0x3dcf2c46	0.10115866
184	0xbde21984	-0.11040023
185	0xbd4e9ca4	-0.050442353
186	0xbd98f827	-0.07469206
187	0x3d7483cc	0.059696004
188	0xbd1c34f5	-0.03813644
189	0xbd82b4ce	-0.06382142
190	0xbd1028a2	-0.035195
191	0x3d7e54b7	0.06209251
192	0x3cdac3e8	0.026704744
193	0x3de45981	0.11149884
194	0x3c753bae	0.014967842
195	0x3d34f148	0.044175416
196	0xbcf36005	-0.029708872
197	0x3c7f42ce	0.015579892
198	0x3b63514e	0.0034685913
199	0x3dcc8d1c	0.09987852
200	0x3dbbb2e6	0.091649815
201	0xbdedce3a	-0.116116
202	0xbdf035a3	-0.117289804
203	0xbe28091e	-0.16409728
204	0xbd2c2753	-0.04202969
205	0x3d06594d	0.032800008
206	0x3e164a6b	0.14676826
207	0xbe0be299	-0.13660659
208	0x3d333bb8	0.043758124
209	0x3d7e92b1	0.062151615
210	0xbbc03ddf	-0.0058667506
211	0xbdd83431	-0.1055683
212	0x3d949ce6	0.072564885
213	0x3cd674ce	0.026178744
214	0xbd96dbcb	-0.07366141
215	0xbbd4b270	-0.006490998
216	0xbe0693e0	-0.13142347
217	0xbc1ecfa4	-0.00969306
218	0x3da353a6	0.07974939
219	0xbacdbcf5	-0.0015696572
220	0xbd22afde	-0.0397185
221	0x3d06ef58	0.0329431
222	0xbd5e3e91	-0.054258887
223	0x3d934352	0.07190575
224	0xbdc806d0	-0.097669244
225	0xbde79865	-0.11308364
226	0xbd8e7372	-0.06955613
227	0xbe2badd9	-0.16765536
228	0x3d95ebb1	0.07320345
229	0xbccc0b4c	-0.02490773
230	0xbd860607	-0.065441184
231	0xbb500944	-0.0031743804
232	0xbd973010	-0.07382214
233	0x3ba7bcbf	0.005118936
234	0x3d58ff97	0.052978124
235	0x3c095270	0.008381471
236	0x3d9f8c45	0.07790426
237	0x3c4dfbf7	0.01257228
238	0xbdcbe0d6	-0.099549934
239	0xbb9c4da0	-0.004769996
240	0x3da6f891	0.08152879
241	0xbceda28f	-0.029008178
242	0xbbc30b74	-0.005952293
243	0x3c47371d	0.012159136
244	0x3cb3ec92	0.021963391
245	0x3cab47d3	0.020908272
246	0xbe04e69b	-0.12978594
247	0x3dd3da3a	0.10344358
248	0x3d7d7292	0.06187684
249	0x3d3a6a55	0.045511562
250	0xbb1ecc2c	-0.0024230583
251	0xbe050b21	-0.12992527
252	0xbce18eb4	-0.027533866
253	0xbc481367	-0.012211657
254	0x3d79bc45	0.060970563
255	0xbdce601a	-0.10076924

action_encoder.linear1.bias f4 [100]
0	0x3db1b8a9	0.08677799
1	0x3cebd6b1	0.028788896
2	0xbd826690	-0.063672185
3	0xbe02ffd8	-0.12792909
4	0x3de6c7d0	0.1126858
5	0xbc88f5f2	-0.016718838
6	0xbe599ee5	-0.2125202
7	0xbd50c6ba	-0.05097077
8	0xb909b0c7	-0.00013131193
9	0xbda3d74f	-0.08000051
10	0xbdb16753	-0.08662286
11	0x3d8a9d41	0.06768275
12	0x3a878b11	0.0010341128
13	0x3cd413b2	0.025888298
14	0xbd547314	-0.05186756
15	0x3d504d86	0.050855182
16	0xbde41cd9	-0.11138315
17	0x3c6ae447	0.014336652
18	0x3dbf2bbb	0.09334513
19	0xbd721c5c	-0.059109077
20	0x3ca9d59f	0.020731745
21	0x3e16fb67	0.1474434
22	0x3ccbca46	0.024876725
23	0x3e2f5653	0.17122774
24	0x3bb8d4f3	0.00564062
25	0x3bae7d5e	0.0053250035
26	0x3e3ffd09	0.18748869
27	0xbdf7f641	-0.12107516
28	0x3d9c6bcc	0.07637748
29	0x3dfbcf30	0.12295377
30	0xbdb1e9dd	-0.08687184
31	0xbd0a994d	-0.033837605
32	0x3e32699e	0.17423102
33	0xbca9a5ec	-0.020709
34	0xbdbe0b4e	-0.092795
35	0x3c55a019	0.013038659
36	0xbe4cff66	-0.20019302
37	0xbd272fd3	-0.040817093
38	0x3ccff2d3	0.025384342
39	0xbd885064	-0.06655958
40	0xbb807864	-0.0039206017
41	0xbdf3fe25	-0.119137086
42	0x3cb66160	0.022263229
43	0xbdfd65d5	-0.123729385
44	0xbdbb2513	-0.09137931
45	0x3d36d1fc	0.04463385
46	0x3d5103c8	0.051028997
47	0xbd56264c	-0.052282616
48	0x3c2bce6b	0.010486226
49	0xbd40ad40	-0.047040224
50	0xbd568be9	-0.052379522
51	0xbd7b2015	-0.061309893
52	0xba88b446	-0.0010429702
53	0xbc01e2d3	-0.007927614
54	0x3dd7792d	0.10521159
55	0x3dbcb8bc	0.09214923
56	0xbcb4acc3	-0.022055035
57	0xbdba846d	-0.091072895
58	0x3c21917e	0.009861348
59	0xbd626861	-0.055275325
60	0xbd000faf	-0.031264957
61	0x3e1d1020	0.15338182
62	0x3b6384fa	0.0034716711
63	0x3d4b9dc0	0.04971099
64	0xbce63e0c	-0.028105758
65	0x3dc9dd8b	0.09856709
66	0xbd37c71f	-0.04486763
67	0xbd81c311	-0.06336034
68	0xbe368cb6	-0.17827114
69	0xbdaa6bb0	-0.08321321
70	0x3d14f280	0.03636408
71	0x3cfa8d69	0.030585008
72	0xbe29daea	-0.16587415
73	0x3b955b3f	0.0045579965
74	0x3d7df245	0.061998624
75	0xbd817a39	-0.0632214
76	0xbd9e9548	-0.07743317
77	0xbd63cbc8	-0.055614263
78	0x3db7355a	0.08945723
79	0xbde8c431	-0.113655455
80	0xbd83e73f	-0.06440591
81	0x3d47b691	0.048758093
82	0x3d2b32ab	0.041796368
83	0xbe0b7125	-0.1361738
84	0x3d8b496d	0.06801114
85	0x3d6d2eb5	0.05790587
86	0x3de85631	0.11344565
87	0xbdb6644f	-0.08905851
88	0xbdf2f028	-0.118622124
89	0x3e005c49	0.12535204
90	0xbe097456	-0.13423285
91	0x3d4325b0	0.047643363
92	0xbe2293f3	-0.1587675
93	0xbd8312a0	-0.06400037
94	0x3df2500e	0.118316755
95	0xbde5817b	-0.11206337
96	0xbd8d218c	-0.06891164
97	0xbc8f550b	-0.017496606
98	0x3e0d677c	0.13809007
99	0xbe0cdbf2	-0.13755777

action_encoder.linear2.weight f4 [50, 100]
0	0xbcd113d8	-0.025522158
1	0xbd2372f3	-0.039904546
2	0x3d5c8013	0.05383308
3	0x3da66ed0	0.081266046
4	0xbd31f4f5	-0.0434465
5	0xbc404a44	-0.011736456
6	0x3bb2ec42	0.005460293
7	0xbc88d6f4	-0.01670406
8	0xba6d916c	-0.0009062502
9	0xbc98e3b9	-0.018663274
10	0xbd20e6a0	-0.03928244
11	0xbd045874	-0.032310918
12	0x3d8aa5c1	0.06769896
13	0x3c886bb0	0.016652912
14	0x3d80cf97	0.062895946
15	0x3da9ffce	0.08300744
16	0x3d97c22d	0.07410083
17	0xbbc7db88	-0.006099168
18	0xbce14fb5	-0.027503828
19	0x3ba70dac	0.0050980654
20	0xbc87616d	-0.016525948
21	0x3daf7810	0.08567822
22	0x3cbf9da3	0.023390597
23	0x3d96e0b7	0.0736708
24	0xbcf4ce1b	-0.029883435
25	0xbb3ec645	-0.0029109877
26	0xbd4e1c23	-0.050319802
27	0xbda23948	-0.07921082
28	0xbd1c1fa8	-0.038116127
29	0xbac41b85	-0.0014961815
30	0xbd51b2a4	-0.051195756
31	0xbdd98099	-0.10620231
32	0x3d24be8f	0.040220793
33	0xbc48424b	-0.012222837
34	0xbcb7775b	-0.02239578
35	0x3a3c0223	0.0007171949
36	0xbd64ee05	-0.055891056
37	0xbd434290	-0.0476709
38	0xbd860fef	-0.06546008
39	0x3c1f2086	0.009712344
40	0x3d47524c	0.04866247
41	0x3c4fbed4	0.012679774
42	0x3c75a3d2	0.014992671
43	0x3ba0e699	0.004910302
44	0x3d133967	0.035943415
45	0xbcbec12d	-0.023285473
46	0xbd08a646	-0.033361696
47	0xbb48eaa3	-0.0030657433
48	0xbc9cc825	-0.019138405
49	0xbd01be11	-0.031675402
50	0x3d1a5c9d	0.03768598
51	0xbc328ad2	-0.010897355
52	0x3dc1d46e	0.09464346
53	0xbc60ae3f	-0.0137134185
54	0xbc7ad994	-0.015310664
55	0xbcc758a8	-0.024334267
56	0x3d24c0ce	0.040222935
57	0x3d7d2186	0.06179955
58	0x3d197ad4	0.037470654
59	0x3cc71009	0.024299638
60	0xbb61ae32	-0.0034436104
61	0x3c97cbdc	0.018529825
62	0xbd1cfa1d	-0.038324464
63	0xbd341b6a	-0.043971457
64	0xbd35d5fc	-0.044393525
65	0xbc7f87c2	-0.015596332
66	0x3cdcb782	0.026942972
67	0xbb746fb8	-0.0037298035
68	0xbd324050	-0.043518364
69	0xbc54df53	-0.012992698
70	0xbd3b1175	-0.045670945
71	0xbd006d1c	-0.031354055
72	0x3d6db0d8	0.05802998
73	0xbc936753	-0.017993605
74	0xbcc2c7d9	-0.023776935
75	0x3cb4d343	0.022073394
76	0x3d1cf73d	0.038321722
77	0x3cb565e2	0.022143308
78	0xbd796ea2	-0.060896523
79	0x3d551082	0.052017696
80	0xbb038291	-0.0020066837
81	0xbbe6a84e	-0.0070391065
82	0xbcfa1dc5	-0.030531773
83	0x3ccf9879	0.02534126
84	0xbb9cbf97	-0.0047835815
85	0x3c13f822	0.009031327
86	0x3d29bc0a	0.041439094
87	0xbcc2a27e	-0.023759123
88	0x3d02a534	0.03189583
89	0xbb472431	-0.0030386562
90	0x3c608286	0.013702994
91	0x3c2badcb	0.010478447
92	0x3c91169a	0.017710973
93	0xbb9f1f24	-0.004856007
94	0xbd0e0acc	-0.034678265
95	0xbd013961	-0.03154886
96	0xbd210a31	-0.03931636
97	0xbd0627cb	-0.032752793
98	0x3c112367	0.008858538
99	0x3d8e77ae	0.06956421
100	0xbcdf960e	-0.027293231
101	0x3d2a8b61	0.04163683
102	0xbdff94d4	-0.124795586
103	0xbce04d8c	-0.027380727
104	0x3dcc0139	0.09961171
105	0xbcd8fa88	-0.02648665
106	0xbd2546b6	-0.04035064
107	0xbcacfd36	-0.021116834
108	0x3a806ea0	0.0009798594
109	0x3da19420	0.07889581
110	0xbbbd2370	-0.0057720467
111	0x3bf7216a	0.007541825
112	0xbd95bfff	-0.07312011
113	0x3d4b045e	0.04956471
114	0xbd7c15b8	-0.06154415
115	0x3d894a44	0.06703618
116	0x3c3ca53d	0.011514005
117	0x3dc67d6c	0.09691891
118	0xbda1f32e	-0.07907711
119	0x3d60a994	0.054849222
120	0x3d9e785f	0.07737803
121	0x3d73e3c0	0.05954337
122	0x3b2f4143	0.002674178
123	0x3d8ff0f2	0.070283785
124	0x3d85d79f	0.06535267
125	0xbd85d0a5	-0.065339364
126	0x3cb6dea5	0.022322962
127	0x3ce95e8e	0.02848747
128	0xbd5c7386	-0.05382111
129	0xbcc80990	-0.024418622
130	0xbdf26536	-0.11835711
131	0xbd813794	-0.06309429
132	0x3d70ab33	0.05875702
133	0x3cb2f9df	0.021847663
134	0xbd7f67f7	-0.062355008
135	0xbda7871d	-0.08180068
136	0xbd632316	-0.055453382
137	0x3d0b86a6	0.034063958
138	0x3c6cfbfb	0.014464374
139	0xbcaf3a9b	-0.02139025
140	0xbcb8d8e5	-0.02256436
141	0xbdb52f61	-0.088469274
142	0xbd0586a2	-0.0325991
143	0x3c92dd67	0.017927838
144	0x3ce4c3a2	0.027925316
145	0xbcea472b	-0.028598389
146	0xbdbce14b	-0.09222659
147	0x3d353a7c	0.04424523
148	0x3d91f7f9	0.07127375
149	0x3cec8422	0.0288716
150	0x3d076966	0.0330595
151	0xbda0c283	-0.078496
152	0x3c93071b	0.017947724
153	0x3d372e80	0.04472208
154	0x3c4e902d	0.012607616
155	0x3d07cc33	0.033153724
156	0x3c2ffd63	0.010741564
157	0x3dc705e4	0.097179204
158	0x3d586906	0.052834533
159	0x3c212204	0.00983477
160	0xbc8a65ad	-0.016894186
161	0x3cfd3d12	0.03091291
162	0x3d505af3	0.050867986
163	0x3bf1713e	0.007368236
164	0x3da61f7e	0.081114754
165	0x3d34c913	0.04413707
166	0x3dbd7283	0.09250357
167	0x3cb38a6f	0.021916596
168	0xbdc58548	-0.09644562
169	0xbce5864d	-0.028018141
170	0xbd6e7483	-0.058216583
171	0x3d0b9d26	0.034085415
172	0xbcf7d1e5	-0.030251453
173	0x3d4699ac	0.048486397
174	0xbb8ff9e7	-0.0043938044
175	0xbcb4aef2	-0.022056077
176	0xbc944e60	-0.018103778
177	0xbc88f128	-0.016716555
178	0x3ca7c30f	0.020478753
179	0xbd5d2ace	-0.0539959
180	0xbb893c95	-0.00418813
181	0x3d1f669c	0.038916215
182	0x3d911edc	0.07085964
183	0x3d0eaf5a	0.034835197
184	0x3cd3a63b	0.0258361
185	0xbcd97f8c	-0.026550077
186	0x3d40cb6f	0.04706901
187	0xbc85617e	-0.01628184
188	0xb9fe954d	-0.00048557893
189	0xbda89b68	-0.082327664
190	0xbd3b5319	-0.045733545
191	0x3c4e2d14	0.01258399
192	0xbe0029c8	-0.12515938
193	0x3cd64aae	0.026158657
194	0xbcba70f1	-0.022758933
195	0x3d89ee0b	0.06734856
196	0x3cf80763	0.03027696
197	0x3ce2ca2a	0.02768429
198	0x3d61de36	0.055143557
199	0xbd6328ea	-0.05545894
200	0xbc84e068	-0.016220286
201	0x3d83bd61	0.064326055
202	0xbdd16df6	-0.102260515
203	0x3db56a2c	0.08858141
204	0x3bc2d4de	0.005945786
205	0x3cb97e76	0.02264331
206	0x3d6c3c0d	0.057674456
207	0xbc801f96	-0.015640061
208	0x3d56ddd6	0.052457653
209	0xbe7b47af	-0.24539064
210	0xbd5c35ca	-0.053762235
211	0x3d86e3be	0.06586407
212	0x3dc236de	0.09483121
213	0xbe05d9a4	-0.13071305
214	0xbcba233a	-0.022721875
215	0x3dc7c9d9	0.09755296
216	0xbd86a3b0	-0.0657419
217	0x3dd32ce5	0.10311297
218	0x3e0a000b	0.13476579
219	0xbddf4bc4	-0.10903123
220	0xbccc9229	-0.024972038
221	0x3d5cd711	0.05391604
222	0x3b2a7506	0.0026009693
223	0xbdc6fd6f	-0.09716307
224	0xbdb1b769	-0.08677561
225	0x3db9f851	0.09080566
226	0xbda08b6a	-0.07839091
227	0xbd8a0628	-0.067394555
228	0x3d1b1a50	0.03786689
229	0xbb1675c2	-0.0022958373
230	0xbca99858	-0.020702526
231	0x3d817132	0.063204184
232	0x3dc20829	0.09474213
233	0x3d1cd970	0.038293302
234	0x3e0109fc	0.12601465
235	0x3d15b5c4	0.0365503
236	0x3dcd437c	0.10022637
237	0xbbb9140e	-0.0056481427
238	0xbd819ea5	-0.06329087
239	0x3bd7f569	0.0065905345
240	0xbe0db449	-0.13838305
241	0x3d9a980b	0.07548531
242	0x3d56c466	0.052433394
243	0xbcde61fb	-0.02714633
244	0xbd05f959	-0.0327085
245	0x3cbc9fd7	0.023025436
246	0xbd84b880	-0.06480503
247	0xbd1f2344	-0.03885199
248	0xbb27d52d	-0.002560924
249	0x3cb99e74	0.022658564
250	0x3db36613	0.087597035
251	0x3d69c95e	0.057076804
252	0xbd1a4e8d	-0.037672568
253	0xbd2da90f	-0.042397555
254	0x3c924479	0.017854916
255	0xbd95fd51	-0.07323707

action_encoder.linear2.bias f4 [50]
0	0xbd34506f	-0.04402202
1	0xbcfbbfa2	-0.030731026
2	0x3bd0e5a7	0.006375033
3	0x3c861f0a	0.016372222
4	0xbd8e6d8d	-0.06954489
5	0xbc19a3a2	-0.009377392
6	0x3d742d02	0.059613235
7	0x3d0c2ab9	0.03422043
8	0x3d478214	0.048708037
9	0xbd277d66	-0.040891074
10	0xbd56af48	-0.052413255
11	0xbd0634e4	-0.032765284
12	0x3c339db1	0.0109628895
13	0x3b8cb358	0.0042938404
14	0xbd0f3268	-0.03496018
15	0x3c879226	0.016549181
16	0x3d3b79ca	0.045770444
17	0xbcd14a88	-0.025548235
18	0xbd2e57e4	-0.042564288
19	0xbca847ef	-0.020542113
20	0x3ce192a3	0.027535742
21	0xbd5e14fa	-0.054219224
22	0xbba7ef78	-0.0051249824
23	0x3d25329d	0.04033147
24	0xbd2b999a	-0.041894533
25	0x3d9c7a84	0.076405555
26	0xbd11e9ce	-0.035623364
27	0x3d969081	0.07351781
28	0x3d600b75	0.054698426
29	0xbd19838a	-0.03747896
30	0x3d548d2d	0.05189245
31	0xbcb79d7c	-0.022413962
32	0x3d73f7be	0.059562437
33	0xbd876e5a	-0.06612845
34	0xbceab016	-0.028648417
35	0x3c9a75bd	0.01885497
36	0xbafc210d	-0.0019235924
37	0xbd54565f	-0.051840182
38	0x3d1aa74e	0.03775721
39	0x3cd0ebcc	0.025503062
40	0xbcbbf9e3	-0.022946304
41	0x3d4a835f	0.04944169
42	0x3d01648d	0.031590033
43	0x3d879eea	0.06622107
44	0xbba8534b	-0.0051368824
45	0xbd4e8566	-0.050420187
46	0x3d4ebb1f	0.05047142
47	0xbd3d9be6	-0.046291254
48	0x3d56e903	0.05246831
49	0x3c53bd1d	0.012923506

reward.fc_in.weight f4 [64, 50]
0	0xbca9d979	-0.020733582
1	0xbd7e4e81	-0.062086586
2	0xbc3dadb6	-0.01157706
3	0xbe0fc1af	-0.14038728
4	0x3d849266	0.06473236
5	0xbd31d80c	-0.04341893
6	0xbdd14be6	-0.102195546
7	0x3d89e057	0.067322426
8	0x3dc48e59	0.09597463
9	0x3d50c9b1	0.050973598
10	0x3b8caa2f	0.0042927484
11	0xbd09f3c7	-0.03367975
12	0x3dbb8b8b	0.09157475
13	0xbe0c1201	-0.13678743
14	0xbdd96a02	-0.106159225
15	0x3e09b494	0.13447791
16	0x3e1fe54f	0.15614818
17	0x3c28ff2b	0.010314743
18	0xbcddf966	-0.027096462
19	0x3d9c122a	0.07620652
20	0x3e1a6bfd	0.15080257
21	0x3b58b409	0.0033066294
22	0x3db2e0cf	0.08734285
23	0x3d3fca5f	0.046823855
24	0x399296a0	0.00027959514
25	0xbd98a7f3	-0.07453909
26	0xbd3131b2	-0.043260284
27	0xbd1b074b	-0.037848752
28	0x3d69552f	0.056966003
29	0xbe2badd7	-0.16765533
30	0x3d2d20cf	0.042267617
31	0x3d60adbf	0.054853197
32	0xbd86fcde	-0.06591199
33	0xbc718d92	-0.014743226
34	0xbc729c18	-0.014807723
35	0xbcf9af34	-0.030479051
36	0xbdcf8e41	-0.10134555
37	0x3d8c246b	0.06842884
38	0xbdec598f	-0.115405194
39	0x3d97a637	0.0740475
40	0xbe08319b	-0.13300173
41	0xba27784c	-0.000638847
42	0xbd8aa0f3	-0.0676898
43	0x3db4629d	0.088078715
44	0xbe139228	-0.14411223
45	0x3d5130dd	0.05107199
46	0x3d8dfd88	0.06933123
47	0xbd9ce810	-0.0766145
48	0xbb9ba6d7	-0.0047501135
49	0x3dfa1ef8	0.12212938
50	0xbe07dca3	-0.1326776
51	0xbdc4eb74	-0.096152216
52	0x3d60ca1d	0.05488025
53	0xbe26bb14	-0.16282302
54	0x3d5a623b	0.053316336
55	0x3db10505	0.086435355
56	0xb985e82e	-0.00025540724
57	0x3c93321c	0.01796823
58	0x3e24b81d	0.16085859
59	0x3d8d608b	0.0690318
60	0x3db731aa	0.089450195
61	0xbde7f7d8	-0.11326569
62	0x3d30cbbb	0.043163043
63	0xbda9734b	-0.082739435
64	0xbe271b81	-0.16319086
65	0x3da8d914	0.08244529
66	0x3c99d397	0.018777652
67	0xbd058245	-0.032594938
68	0xbd627ad3	-0.055292916
69	0xbda64730	-0.08119047
70	0x3d9f8063	0.0778816
71	0x3df6843b	0.1203694
72	0xbd36a9f2	-0.044595666
73	0x3dbd8c1b	0.092552386
74	0xbe0f2d02	-0.13982013
75	0xbd953bf2	-0.07286824
76	0x3dd3a5d9	0.10334367
77	0x3d068e0f	0.03285032
78	0xbda8abd5	-0.08235899
79	0xbddbb5b9	-0.1072802
80	0x3c4bbf0c	0.012435686
81	0xbe272469	-0.16322483
82	0x3db6b1c9	0.089206286
83	0xbdd35e9a	-0.10320778
84	0x3dc40fce	0.09573327
85	0x3d8df57c	0.06931588
86	0x3df2a20a	0.11847313
87	0xbe01f980	-0.12692833
88	0x3d0d4551	0.034489933
89	0xbde77cb8	-0.11303085
90	0xbdf4dd1f	-0.11956238
91	0x3e001f06	0.12511835
92	0xbe34a2c4	-0.17640215
93	0xbce9c7c7	-0.028537644
94	0x3bb67e7a	0.0055692764
95	0xbcf08308	-0.029359356
96	0x3e2b26d5	0.16714032
97	0x3db93921	0.090440996
98	0xbdb61bed	-0.08892045
99	0x3bbe30f0	0.0058041736
100	0xbe0f96a5	-0.1402231
101	0x3d92a34b	0.07160052
102	0x3e09f22e	0.1347129
103	0xbcd8c672	-0.026461814
104	0xbd00b9bb	-0.031427126
105	0x3e0be152	0.13660172
106	0xbce7aa68	-0.028279498
107	0xbdf6f6c9	-0.12058789
108	0xbde12634	-0.10993615
109	0x39d3a263	0.00040366044
110	0xbb8e4cf2	-0.0043426687
111	0xbd34c9ce	-0.04413777
112	0xbd0a4542	-0.033757456
113	0xbda5f987	-0.08104234
114	0xbc1a2339	-0.009407812
115	0x3db1160e	0.08646785
116	0xbd52e5f3	-0.051488828
117	0xbcdff539	-0.027338611
118	0xbb565d6e	-0.0032709497
119	0x3da86fc2	0.08224441
120	0xbc93c366	-0.01803751
121	0xbd231d5e	-0.03982293
122	0x3dce571c	0.100752085
123	0x3c33aa53	0.010965901
124	0x3d832602	0.06403734
125	0xbc0a5134	-0.008442212
126	0xbd88ea3e	-0.06685303
127	0x3d1032b1	0.035204593
128	0x3d4c32fa	0.049853303
129	0x3ca9e4e6	0.02073903
130	0x3d99f031	0.07516516
131	0xbcb5cf69	-0.022193627
132	0xbdd1c1ab	-0.10242017
133	0xbaa5a23f	-0.0012636854
134	0x3cad0061	0.021118345
135	0x3c99dd89	0.018782394
136	0x3c5b096b	0.013368945
137	0x3e0ca75b	0.13735716
138	0xbc67c73c	-0.014146622
139	0x3db1a119	0.08673305
140	0xbe42f1b4	-0.19037515
141	0xbb0f8f03	-0.002190531
142	0xbdef867b	-0.11695572
143	0x39e16668	0.00042991643
144	0xbe0a7287	-0.13520251
145	0xbd43e2cb	-0.04782371
146	0x3e047bb4	0.12937814
147	0x3d5c8351	0.05383617
148	0x3dceb236	0.10092585
149	0x3be73b24	0.0070566107
150	0x3dbb8c85	0.09157661
151	0xbd91af39	-0.07113499
152	0x3d3cb37a	0.0460696
153	0xbe03680c	-0.1283266
154	0xbdde42c8	-0.10852581
155	0xbe0cc598	-0.13747251
156	0x3db6c520	0.08924317
157	0x3d4a4f4a	0.049392022
158	0xbdbf9f53	-0.093565606
159	0x3bb091b1	0.0053884615
160	0x3e040156	0.12891135
161	0xbd988bae	-0.07448517
162	0xbdd18e0e	-0.10232173
163	0xbde98743	-0.11402752
164	0xbc6262ad	-0.013817471
165	0x3df732fc	0.120702714
166	0x3cbb4669	0.022860723
167	0xbc9912f5	-0.018685797
168	0xbce2c50d	-0.027681852
169	0xbd074f75	-0.03303476
170	0xbd87c3e3	-0.06629159
171	0x3e0d4f9c	0.137999
172	0xbd7696e7	-0.060202505
173	0xbd39f2d5	-0.0453976
174	0xbd5c86a6	-0.05383935
175	0x3df25345	0.11832289
176	0xbda57375	-0.08078662
177	0x3e08b731	0.13351132
178	0xbb8076ee	-0.0039204275
179	0xbd5c3a6a	-0.053766645
180	0x3da8cee5	0.08242587
181	0x3dfc3d20	0.12316346
182	0xbd4a9916	-0.0494624
183	0x3db01927	0.085985474
184	0xbdb4c9d3	-0.088275574
185	0xbd5ee3e1	-0.05441654
186	0x3db37b70	0.08763778
187	0x3e0ac345	0.13551052
188	0xbdff4d23	-0.124658845
189	0xbdb1044c	-0.08643398
190	0xbdc8d0a0	-0.09805417
191	0xbc905b5b	-0.017621687
192	0xbc238270	-0.009979829
193	0x3dad3790	0.08457863
194	0x3d0246ed	0.03180592
195	0xbdd122e4	-0.10211733
196	0xbc7dcd64	-0.0154908635
197	0xbd9fe28a	-0.07806881
198	0x3c178f58	0.009250484
199	0x3d4dbd9a	0.050229646
200	0xbde1175f	-0.10990786
201	0x3e1849e3	0.14871936
202	0xbd0a9b42	-0.03383947
203	0xbdf66510	-0.12030995
204	0xbda866ad	-0.08222709
205	0x3de6ee78	0.11275953
206	0x3d0820c3	0.03323437
207	0xbdd0ce7e	-0.10195635
208	0xbda909b7	-0.08253806
209	0xbe1ee185	-0.15515716
210	0x3d516a86	0.05112698
211	0xbd686ab1	-0.056742374
212	0x3e00d819	0.12582435
213	0x3d33601d	0.043792833
214	0xbd864dee	-0.06557833
215	0x3dd7f8e6	0.105455205
216	0xbd3b8fdc	-0.045791492
217	0xbde55e56	-0.11199634
218	0xbdfc29c2	-0.12312652
219	0xbd36acc5	-0.04459836
220	0x3cac4be2	0.021032277
221	0x3c9e61db	0.01933377
222	0xbd3ce11f	-0.04611313
223	0xbd16ff61	-0.036864642
224	0xbd079d78	-0.03310916
225	0xbdee60b2	-0.11639537
226	0x3e0900d1	0.13379218
227	0xbd43acef	-0.047772344
228	0x3b82e387	0.0039944085
229	0x3d44a0b9	0.04800484
230	0xbc1da916	-0.009622833
231	0x3c62f9fe	0.013853548
232	0xbdefc808	-0.11708075
233	0xbceb635e	-0.028733905
234	0xbd697c5d	-0.057003368
235	0x3e1223d1	0.14271475
236	0xbcdeb9ea	-0.02718826
237	0xbdd64068	-0.10461503
238	0xbdc3f359	-0.09567899
239	0xbdc4838b	-0.09595402
240	0xba7b2f22	-0.00095819135
241	0xbdaac8a6	-0.08339052
242	0xbda44e1a	-0.08022709
243	0xbd65d2e3	-0.05610932
244	0x3dfd5956	0.12370555
245	0xbe80eda2	-0.251813
246	0xbcc78a45	-0.024357924
247	0x3e0144a3	0.12623839
248	0x3daae02a	0.08343537
249	0x3d1aa22e	0.037752323
250	0x3d0c7e9a	0.034300424
251	0xbde10177	-0.109866075
252	0x3c56de3a	0.013114506
253	0xbe1e1f21	-0.15441562
254	0xbd86716a	-0.06564601
255	0x3e05849c	0.13038868

reward.fc_in.bias f4 [64]
0	0x3d39aaa4	0.04532875
1	0x3e4e3f47	0.20141326
2	0x3c5b5e0e	0.013389124
3	0xbdeaee82	-0.11471273
4	0xbe2ee29b	-0.1707863
5	0x3e930e37	0.28721783
6	0x3e4d38e8	0.2004124
7	0xbd47716e	-0.04869216
8	0xbd920110	-0.07129109
9	0xbe812b8d	-0.2522854
10	0x3d3e59b4	0.046472266
11	0xbc1eb99e	-0.009687809
12	0xbd6c1f5e	-0.0576471
13	0x3e85ac0a	0.26107818
14	0xbe05eaa6	-0.13077793
15	0xbcc0c5c6	-0.023531806
16	0xbe6b03e1	-0.22950698
17	0x3cc775a7	0.024348093
18	0xbd821af2	-0.06352796
19	0xbdcb00ad	-0.09912238
20	0xbca36b97	-0.019948764
21	0xbe8f1561	-0.27945998
22	0x3e6666f6	0.22500214
23	0x3e6b5ef4	0.2298544
24	0xbe71d036	-0.23614582
25	0xbe623953	-0.2209218
26	0xbba292fb	-0.004961369
27	0xbddbb3c2	-0.107276455
28	0x3c134e95	0.008990903
29	0xbdd0e892	-0.10200609
30	0xbc6b69ad	-0.014368457
31	0xbe6b4d91	-0.22978808
32	0x3e743a0e	0.23850271
33	0xbce2f196	-0.027703088
34	0x3e6c783f	0.23092745
35	0x3ca96ae1	0.020680847
36	0xbe87773b	-0.26458153
37	0x3e9b59f2	0.3034206
38	0xbe956c70	-0.29184294
39	0xbdf05fed	-0.117370464
40	0x3e4b08c9	0.1982757
41	0x3e4ca021	0.1998296
42	0xbdc5b338	-0.09653324
43	0xbe8b7439	-0.27237108
44	0xbdce8318	-0.10083598
45	0x3e3db0c0	0.18524456
46	0xbd96ba43	-0.07359745
47	0xbdf148e4	-0.11781481
48	0x3d2949ee	0.04133027
49	0xbe465d44	-0.19371516
50	0xbe38fb75	-0.18064673
51	0xbe21049b	-0.15724413
52	0x3ddc76d9	0.10764856
53	0xbe369f20	-0.17834139
54	0xbe88ca76	-0.26716965
55	0x3e910759	0.28325918
56	0xbcb5daed	-0.022199119
57	0x3e98da23	0.29853925
58	0x3e802bcb	0.2503341
59	0xbc3718c9	-0.011175343
60	0xbd4c1e13	-0.04983337
61	0xbc185a92	-0.009298937
62	0x3dc1045e	0.09424661
63	0xbe176508	-0.14784634
